…
0.6215686274509803, "recall": 0.6292929292929293, "f1-score": 0.6084656084656085, "support": 65}, "weighted avg": {"precision": 0.6993363499245853, "recall": 0.6461538461538462, "f1-score": 0.6622710622710624, "support": 65}}, "model_sum": "Model: \"emergency_net\"\n__________________________________________________________________________________________________\nLayer (type)                    Output Shape         Param #     Connected to                     \n==================================================================================================\ninput_1 (InputLayer)            [(None, 224, 224, 3) 0                                            \n__________________________________________________________________________________________________\nconvI (Conv2D)                  (None, 110, 110, 32) 2400        input_1[0][0]                    \n__________________________________________________________________________________________________\nbatch_normalization (BatchNorma (None, 110, 110, 32) 128         convI[0][0]                      \n__________________________________________________________________________________________________\nleakyrelu_ccnv_act0 (LeakyReLU) (None, 110, 110, 32) 0           batch_normalization[0][0]        \n__________________________________________________________________________________________________\nconv_2d_redu_1 (Conv2D)         (None, 110, 110, 16) 512         leakyrelu_ccnv_act0[0][0]        \n__________________________________________________________________________________________________\natrous_redu_bn_1 (BatchNormaliz (None, 110, 110, 16) 64          conv_2d_redu_1[0][0]             \n__________________________________________________________________________________________________\nleakyrelu_atrous_redu_act_1 (Le (None, 110, 110, 16) 0           atrous_redu_bn_1[0][0]           \n__________________________________________________________________________________________________\natrous_depth_conv_1_0 (Depthwis (None, 110, 110, 16) 144         leakyrelu_atrous_redu_act_1[0][0]\n__________________________________________________________________________________________________\natrous_depth_conv_1_1 (Depthwis (None, 110, 110, 16) 144         leakyrelu_atrous_redu_act_1[0][0]\n__________________________________________________________________________________________________\natrous_depth_conv_1_2 (Depthwis (None, 110, 110, 16) 144         leakyrelu_atrous_redu_act_1[0][0]\n__________________________________________________________________________________________________\natrous_bn_1_0 (BatchNormalizati (None, 110, 110, 16) 64          atrous_depth_conv_1_0[0][0]      \n__________________________________________________________________________________________________\natrous_bn_1_1 (BatchNormalizati (None, 110, 110, 16) 64          atrous_depth_conv_1_1[0][0]      \n__________________________________________________________________________________________________\natrous_bn_1_2 (BatchNormalizati (None, 110, 110, 16) 64          atrous_depth_conv_1_2[0][0]      \n__________________________________________________________________________________________________\nleakyrelu_atrous_act1_0 (LeakyR (None, 110, 110, 16) 0           atrous_bn_1_0[0][0]              \n__________________________________________________________________________________________________\nleakyrelu_atrous_act1_1 (LeakyR (None, 110, 110, 16) 0           atrous_bn_1_1[0][0]              \n__________________________________________________________________________________________________\nleakyrelu_atrous_act1_2 (LeakyR (None, 110, 110, 16) 0           atrous_bn_1_2[0][0]              \n__________________________________________________________________________________________________\nadd_1 (Add)                     (None, 110, 110, 16) 0           leakyrelu_atrous_redu_act_1[0][0]\n                                                                 leakyrelu_atrous_act1_0[0][0]    \n                                                                 leakyrelu_atrous_act1_1[0][0]    \n                                                                 leakyrelu_atrous_act1_2[0][0]    \n__________________________________________________________________________________________________\nconv_2d_1 (Conv2D)              (None, 110, 110, 64) 1024        add_1[0][0]                      \n__________________________________________________________________________________________________\ncnv_bn_1 (BatchNormalization)   (None, 110, 110, 64) 256         conv_2d_1[0][0]                  \n__________________________________________________________________________________________________\nleakyrelu_ccnv_act1 (LeakyReLU) (None, 110, 110, 64) 0           cnv_bn_1[0][0]                   \n__________________________________________________________________________________________________\nmax_pooling2d (MaxPooling2D)    (None, 55, 55, 64)   0           leakyrelu_ccnv_act1[0][0]        \n__________________________________________________________________________________________________\nconv_2d_redu_2 (Conv2D)         (None, 55, 55, 32)   2048        max_pooling2d[0][0]              \n__________________________________________________________________________________________________\natrous_redu_bn_2 (BatchNormaliz (None, 55, 55, 32)   128         conv_2d_redu_2[0][0]             \n__________________________________________________________________________________________________\nleakyrelu_atrous_redu_act_2 (Le (None, 55, 55, 32)   0           atrous_redu_bn_2[0][0]           \n__________________________________________________________________________________________________\natrous_depth_conv_2_0 (Depthwis (None, 55, 55, 32)   288         leakyrelu_atrous_redu_act_2[0][0]\n__________________________________________________________________________________________________\natrous_depth_conv_2_1 (Depthwis (None, 55, 55, 32)   288         leakyrelu_atrous_redu_act_2[0][0]\n__________________________________________________________________________________________________\natrous_depth_conv_2_2 (Depthwis (None, 55, 55, 32)   288         leakyrelu_atrous_redu_act_2[0][0]\n__________________________________________________________________________________________________\natrous_bn_2_0 (BatchNormalizati (None, 55, 55, 32)   128         atrous_depth_conv_2_0[0][0]      \n__________________________________________________________________________________________________\natrous_bn_2_1 (BatchNormalizati (None, 55, 55, 32)   128         atrous_depth_conv_2_1[0][0]      \n__________________________________________________________________________________________________\natrous_bn_2_2 (BatchNormalizati (None, 55, 55, 32)   128         atrous_depth_conv_2_2[0][0]      \n__________________________________________________________________________________________________\nleakyrelu_atrous_act2_0 (LeakyR (None, 55, 55, 32)   0           atrous_bn_2_0[0][0]              \n__________________________________________________________________________________________________\nleakyrelu_atrous_act2_1 (LeakyR (None, 55, 55, 32)   0           atrous_bn_2_1[0][0]              \n__________________________________________________________________________________________________\nleakyrelu_atrous_act2_2 (LeakyR (None, 55, 55, 32)   0           atrous_bn_2_2[0][0]              \n__________________________________________________________________________________________________\nadd_2 (Add)                     (None, 55, 55, 32)   0           leakyrelu_atrous_redu_act_2[0][0]\n                                                                 leakyrelu_atrous_act2_0[0][0]    \n                                                                 leakyrelu_atrous_act2_1[0][0]    \n                                                                 leakyrelu_atrous_act2_2[0][0]    \n__________________________________________________________________________________________________\nconv_2d_2 (Conv2D)              (None, 55, 55, 96)   3072        add_2[0][0]                      \n__________________________________________________________________________________________________\ncnv_bn_2 (BatchNormalization)   (None, 55, 55, 96)   384         conv_2d_2[0][0]                  \n__________________________________________________________________________________________________\nleakyrelu_ccnv_act2 (LeakyReLU) (None, 55, 55, 96)   0           cnv_bn_2[0][0]                   \n__________________________________________________________________________________________________\nmax_pooling2d_1 (MaxPooling2D)  (None, 27, 27, 96)   0           leakyrelu_ccnv_act2[0][0]        \n__________________________________________________________________________________________________\nconv_2d_redu_3 (Conv2D)         (None, 27, 27, 48)   4608        max_pooling2d_1[0][0]            \n__________________________________________________________________________________________________\natrous_redu_bn_3 (BatchNormaliz (None, 27, 27, 48)   192         conv_2d_redu_3[0][0]             \n__________________________________________________________________________________________________\nleakyrelu_atrous_redu_act_3 (Le (None, 27, 27, 48)   0           atrous_redu_bn_3[0][0]           \n__________________________________________________________________________________________________\natrous_depth_conv_3_0 (Depthwis (None, 27, 27, 48)   432         leakyrelu_atrous_redu_act_3[0][0]\n__________________________________________________________________________________________________\natrous_depth_conv_3_1 (Depthwis (None, 27, 27, 48)   432         leakyrelu_atrous_redu_act_3[0][0]\n__________________________________________________________________________________________________\natrous_depth_conv_3_2 (Depthwis (None, 27, 27, 48)   432         leakyrelu_atrous_redu_act_3[0][0]\n__________________________________________________________________________________________________\natrous_bn_3_0 (BatchNormalizati (None, 27, 27, 48)   192         atrous_depth_conv_3_0[0][0]      \n__________________________________________________________________________________________________\natrous_bn_3_1 (BatchNormalizati (None, 27, 27, 48)   192         atrous_depth_conv_3_1[0][0]      \n__________________________________________________________________________________________________\natrous_bn_3_2 (BatchNormalizati (None, 27, 27, 48)   192         atrous_depth_conv_3_2[0][0]      \n__________________________________________________________________________________________________\nleakyrelu_atrous_act3_0 (LeakyR (None, 27, 27, 48)   0           atrous_bn_3_0[0][0]              \n__________________________________________________________________________________________________\nleakyrelu_atrous_act3_1 (LeakyR (None, 27, 27, 48)   0           atrous_bn_3_1[0][0]              \n__________________________________________________________________________________________________\nleakyrelu_atrous_act3_2 (LeakyR (None, 27, 27, 48)   0           atrous_bn_3_2[0][0]              \n__________________________________________________________________________________________________\nadd_3 (Add)                     (None, 27, 27, 48)   0           leakyrelu_atrous_redu_act_3[0][0]\n                                                                 leakyrelu_atrous_act3_0[0][0]    \n                                                                 leakyrelu_atrous_act3_1[0][0]    \n                                                                 leakyrelu_atrous_act3_2[0][0]    \n__________________________________________________________________________________________________\nconv_2d_3 (Conv2D)              (None, 27, 27, 128)  6144        add_3[0][0]                      \n__________________________________________________________________________________________________\ncnv_bn_3 (BatchNormalization)   (None, 27, 27, 128)  512         conv_2d_3[0][0]                  \n__________________________________________________________________________________________________\nleakyrelu_ccnv_act3 (LeakyReLU) (None, 27, 27, 128)  0           cnv_bn_3[0][0]                   \n__________________________________________________________________________________________________\nmax_pooling2d_2 (MaxPooling2D)  (None, 13, 13, 128)  0           leakyrelu_ccnv_act3[0][0]        \n__________________________________________________________________________________________________\nconv_2d_redu_4 (Conv2D)         (None, 13, 13, 64)   8192        max_pooling2d_2[0][0]            \n__________________________________________________________________________________________________\natrous_redu_bn_4 (BatchNormaliz (None, 13, 13, 64)   256         conv_2d_redu_4[0][0]             \n__________________________________________________________________________________________________\nleakyrelu_atrous_redu_act_4 (Le (None, 13, 13, 64)   0           atrous_redu_bn_4[0][0]           \n__________________________________________________________________________________________________\natrous_depth_conv_4_0 (Depthwis (None, 13, 13, 64)   576         leakyrelu_atrous_redu_act_4[0][0]\n__________________________________________________________________________________________________\natrous_depth_conv_4_1 (Depthwis (None, 13, 13, 64)   576         leakyrelu_atrous_redu_act_4[0][0]\n__________________________________________________________________________________________________\natrous_depth_conv_4_2 (Depthwis (None, 13, 13, 64)   576         leakyrelu_atrous_redu_act_4[0][0]\n__________________________________________________________________________________________________\natrous_bn_4_0 (BatchNormalizati (None, 13, 13, 64)   256         atrous_depth_conv_4_0[0][0]      \n__________________________________________________________________________________________________\natrous_bn_4_1 (BatchNormalizati (None, 13, 13, 64)   256         atrous_depth_conv_4_1[0][0]      \n__________________________________________________________________________________________________\natrous_bn_4_2 (BatchNormalizati (None, 13, 13, 64)   256         atrous_depth_conv_4_2[0][0]      \n__________________________________________________________________________________________________\nleakyrelu_atrous_act4_0 (LeakyR (None, 13, 13, 64)   0           atrous_bn_4_0[0][0]              \n__________________________________________________________________________________________________\nleakyrelu_atrous_act4_1 (LeakyR (None, 13, 13, 64)   0           atrous_bn_4_1[0][0]              \n__________________________________________________________________________________________________\nleakyrelu_atrous_act4_2 (LeakyR (None, 13, 13, 64)   0           atrous_bn_4_2[0][0]              \n__________________________________________________________________________________________________\nadd_4 (Add)                     (None, 13, 13, 64)   0           leakyrelu_atrous_redu_act_4[0][0]\n                                                                 leakyrelu_atrous_act4_0[0][0]    \n                                                                 leakyrelu_atrous_act4_1[0][0]    \n                                                                 leakyrelu_atrous_act4_2[0][0]    \n__________________________________________________________________________________________________\nconv_2d_4 (Conv2D)              (None, 13, 13, 128)  8192        add_4[0][0]                      \n__________________________________________________________________________________________________\ncnv_bn_4 (BatchNormalization)   (None, 13, 13, 128)  512         conv_2d_4[0][0]                  \n__________________________________________________________________________________________________\nleakyrelu_ccnv_act4 (LeakyReLU) (None, 13, 13, 128)  0           cnv_bn_4[0][0]                   \n__________________________________________________________________________________________________\nconv_2d_redu_5 (Conv2D)         (None, 13, 13, 64)   8192        leakyrelu_ccnv_act4[0][0]        \n__________________________________________________________________________________________________\natrous_redu_bn_5 (BatchNormaliz (None, 13, 13, 64)   256         conv_2d_redu_5[0][0]             \n__________________________________________________________________________________________________\nleakyrelu_atrous_redu_act_5 (Le (None, 13, 13, 64)   0           atrous_redu_bn_5[0][0]           \n__________________________________________________________________________________________________\natrous_depth_conv_5_0 (Depthwis (None, 13, 13, 64)   576         leakyrelu_atrous_redu_act_5[0][0]\n__________________________________________________________________________________________________\natrous_depth_conv_5_1 (Depthwis (None, 13, 13, 64)   576         leakyrelu_atrous_redu_act_5[0][0]\n__________________________________________________________________________________________________\natrous_depth_conv_5_2 (Depthwis (None, 13, 13, 64)   576         leakyrelu_atrous_redu_act_5[0][0]\n__________________________________________________________________________________________________\natrous_bn_5_0 (BatchNormalizati (None, 13, 13, 64)   256         atrous_depth_conv_5_0[0][0]      \n__________________________________________________________________________________________________\natrous_bn_5_1 (BatchNormalizati (None, 13, 13, 64)   256         atrous_depth_conv_5_1[0][0]      \n__________________________________________________________________________________________________\natrous_bn_5_2 (BatchNormalizati (None, 13, 13, 64)   256         atrous_depth_conv_5_2[0][0]      \n__________________________________________________________________________________________________\nleakyrelu_atrous_act5_0 (LeakyR (None, 13, 13, 64)   0           atrous_bn_5_0[0][0]              \n__________________________________________________________________________________________________\nleakyrelu_atrous_act5_1 (LeakyR (None, 13, 13, 64)   0           atrous_bn_5_1[0][0]              \n__________________________________________________________________________________________________\nleakyrelu_atrous_act5_2 (LeakyR (None, 13, 13, 64)   0           atrous_bn_5_2[0][0]              \n__________________________________________________________________________________________________\nadd_5 (Add)                     (None, 13, 13, 64)   0           leakyrelu_atrous_redu_act_5[0][0]\n                                                                 leakyrelu_atrous_act5_0[0][0]    \n                                                                 leakyrelu_atrous_act5_1[0][0]    \n                                                                 leakyrelu_atrous_act5_2[0][0]    \n__________________________________________________________________________________________________\nconv_2d_5 (Conv2D)              (None, 13, 13, 128)  8192        add_5[0][0]                      \n__________________________________________________________________________________________________\ncnv_bn_5 (BatchNormalization)   (None, 13, 13, 128)  512         conv_2d_5[0][0]                  \n__________________________________________________________________________________________________\nleakyrelu_ccnv_act5 (LeakyReLU) (None, 13, 13, 128)  0           cnv_bn_5[0][0]                   \n__________________________________________________________________________________________________\nconv_2d_redu_6 (Conv2D)         (None, 13, 13, 64)   8192        leakyrelu_ccnv_act5[0][0]        \n__________________________________________________________________________________________________\natrous_redu_bn_6 (BatchNormaliz (None, 13, 13, 64)   256         conv_2d_redu_6[0][0]             \n__________________________________________________________________________________________________\nleakyrelu_atrous_redu_act_6 (Le (None, 13, 13, 64)   0           atrous_redu_bn_6[0][0]           \n__________________________________________________________________________________________________\natrous_depth_conv_6_0 (Depthwis (None, 13, 13, 64)   576         leakyrelu_atrous_redu_act_6[0][0]\n__________________________________________________________________________________________________\natrous_depth_conv_6_1 (Depthwis (None, 13, 13, 64)   576         leakyrelu_atrous_redu_act_6[0][0]\n__________________________________________________________________________________________________\natrous_depth_conv_6_2 (Depthwis (None, 13, 13, 64)   576         leakyrelu_atrous_redu_act_6[0][0]\n__________________________________________________________________________________________________\natrous_bn_6_0 (BatchNormalizati (None, 13, 13, 64)   256         atrous_depth_conv_6_0[0][0]      \n__________________________________________________________________________________________________\natrous_bn_6_1 (BatchNormalizati (None, 13, 13, 64)   256         atrous_depth_conv_6_1[0][0]      \n__________________________________________________________________________________________________\natrous_bn_6_2 (BatchNormalizati (None, 13, 13, 64)   256         atrous_depth_conv_6_2[0][0]      \n__________________________________________________________________________________________________\nleakyrelu_atrous_act6_0 (LeakyR (None, 13, 13, 64)   0           atrous_bn_6_0[0][0]              \n__________________________________________________________________________________________________\nleakyrelu_atrous_act6_1 (LeakyR (None, 13, 13, 64)   0           atrous_bn_6_1[0][0]              \n__________________________________________________________________________________________________\nleakyrelu_atrous_act6_2 (LeakyR (None, 13, 13, 64)   0           atrous_bn_6_2[0][0]              \n__________________________________________________________________________________________________\nadd_6 (Add)                     (None, 13, 13, 64)   0           leakyrelu_atrous_redu_act_6[0][0]\n                                                                 leakyrelu_atrous_act6_0[0][0]    \n                                                                 leakyrelu_atrous_act6_1[0][0]    \n                                                                 leakyrelu_atrous_act6_2[0][0]    \n__________________________________________________________________________________________________\nconv_2d_6 (Conv2D)              (None, 13, 13, 256)  16384       add_6[0][0]                      \n__________________________________________________________________________________________________\ncnv_bn_6 (BatchNormalization)   (None, 13, 13, 256)  1024        conv_2d_6[0][0]                  \n__________________________________________________________________________________________________\nleakyrelu_ccnv_act6 (LeakyReLU) (None, 13, 13, 256)  0           cnv_bn_6[0][0]                   \n__________________________________________________________________________________________________\nseparable_conv2d (SeparableConv (None, 13, 13, 3)    1024        leakyrelu_ccnv_act6[0][0]        \n__________________________________________________________________________________________________\nbatch_normalization_1 (BatchNor (None, 13, 13, 3)    12          separable_conv2d[0][0]           \n__________________________________________________________________________________________________\nleaky_re_lu (LeakyReLU)         (None, 13, 13, 3)    0           batch_normalization_1[0][0]      \n__________________________________________________________________________________________________\nglobal_average_pooling2d (Globa (None, 3)            0           leaky_re_lu[0][0]                \n__________________________________________________________________________________________________\nclass_branch (Activation)       (None, 3)            0           global_average_pooling2d[0][0]   \n==================================================================================================\nTotal params: 93,900\nTrainable params: 89,926\nNon-trainable params: 3,974\n__________________________________________________________________________________________________\n"}