…
0.5645424836601307, "recall": 0.5707070707070707, "f1-score": 0.5575281487300341, "support": 65}, "weighted avg": {"precision": 0.6361236802413274, "recall": 0.6153846153846154, "f1-score": 0.6185509698471207, "support": 65}}, "model_sum": "Model: \"emergency_net\"\n__________________________________________________________________________________________________\nLayer (type)                    Output Shape         Param #     Connected to                     \n==================================================================================================\ninput_1 (InputLayer)            [(None, 224, 224, 3) 0                                            \n__________________________________________________________________________________________________\nconvI (Conv2D)                  (None, 110, 110, 32) 2400        input_1[0][0]                    \n__________________________________________________________________________________________________\nbatch_normalization (BatchNorma (None, 110, 110, 32) 128         convI[0][0]                      \n__________________________________________________________________________________________________\nlambda (Lambda)                 (None, 110, 110, 32) 0           batch_normalization[0][0]        \n__________________________________________________________________________________________________\nconv_2d_redu_1 (Conv2D)         (None, 110, 110, 16) 512         lambda[0][0]                     \n__________________________________________________________________________________________________\natrous_redu_bn_1 (BatchNormaliz (None, 110, 110, 16) 64          conv_2d_redu_1[0][0]             \n__________________________________________________________________________________________________\nlambda_1 (Lambda)               (None, 110, 110, 16) 0           atrous_redu_bn_1[0][0]           \n__________________________________________________________________________________________________\natrous_depth_conv_1_0 (Depthwis (None, 110, 110, 16) 144         lambda_1[0][0]                   \n__________________________________________________________________________________________________\natrous_depth_conv_1_1 (Depthwis (None, 110, 110, 16) 144         lambda_1[0][0]                   \n__________________________________________________________________________________________________\natrous_depth_conv_1_2 (Depthwis (None, 110, 110, 16) 144         lambda_1[0][0]                   \n__________________________________________________________________________________________________\natrous_bn_1_0 (BatchNormalizati (None, 110, 110, 16) 64          atrous_depth_conv_1_0[0][0]      \n__________________________________________________________________________________________________\natrous_bn_1_1 (BatchNormalizati (None, 110, 110, 16) 64          atrous_depth_conv_1_1[0][0]      \n__________________________________________________________________________________________________\natrous_bn_1_2 (BatchNormalizati (None, 110, 110, 16) 64          atrous_depth_conv_1_2[0][0]      \n__________________________________________________________________________________________________\nlambda_2 (Lambda)               (None, 110, 110, 16) 0           atrous_bn_1_0[0][0]              \n__________________________________________________________________________________________________\nlambda_3 (Lambda)               (None, 110, 110, 16) 0           atrous_bn_1_1[0][0]              \n__________________________________________________________________________________________________\nlambda_4 (Lambda)               (None, 110, 110, 16) 0           atrous_bn_1_2[0][0]              \n__________________________________________________________________________________________________\nmax_1 (Maximum)                 (None, 110, 110, 16) 0           lambda_1[0][0]                   \n                                                                 lambda_2[0][0]                   \n                                                                 lambda_3[0][0]                   \n                                                                 lambda_4[0][0]                   \n__________________________________________________________________________________________________\nconv_2d_1 (Conv2D)              (None, 110, 110, 64) 1024        max_1[0][0]                      \n__________________________________________________________________________________________________\ncnv_bn_1 (BatchNormalization)   (None, 110, 110, 64) 256         conv_2d_1[0][0]                  \n__________________________________________________________________________________________________\nlambda_5 (Lambda)               (None, 110, 110, 64) 0           cnv_bn_1[0][0]                   \n__________________________________________________________________________________________________\nmax_pooling2d (MaxPooling2D)    (None, 55, 55, 64)   0           lambda_5[0][0]                   \n__________________________________________________________________________________________________\nconv_2d_redu_2 (Conv2D)         (None, 55, 55, 32)   2048        max_pooling2d[0][0]              \n__________________________________________________________________________________________________\natrous_redu_bn_2 (BatchNormaliz (None, 55, 55, 32)   128         conv_2d_redu_2[0][0]             \n__________________________________________________________________________________________________\nlambda_6 (Lambda)               (None, 55, 55, 32)   0           atrous_redu_bn_2[0][0]           \n__________________________________________________________________________________________________\natrous_depth_conv_2_0 (Depthwis (None, 55, 55, 32)   288         lambda_6[0][0]                   \n__________________________________________________________________________________________________\natrous_depth_conv_2_1 (Depthwis (None, 55, 55, 32)   288         lambda_6[0][0]                   \n__________________________________________________________________________________________________\natrous_depth_conv_2_2 (Depthwis (None, 55, 55, 32)   288         lambda_6[0][0]                   \n__________________________________________________________________________________________________\natrous_bn_2_0 (BatchNormalizati (None, 55, 55, 32)   128         atrous_depth_conv_2_0[0][0]      \n__________________________________________________________________________________________________\natrous_bn_2_1 (BatchNormalizati (None, 55, 55, 32)   128         atrous_depth_conv_2_1[0][0]      \n__________________________________________________________________________________________________\natrous_bn_2_2 (BatchNormalizati (None, 55, 55, 32)   128         atrous_depth_conv_2_2[0][0]      \n__________________________________________________________________________________________________\nlambda_7 (Lambda)               (None, 55, 55, 32)   0           atrous_bn_2_0[0][0]              \n__________________________________________________________________________________________________\nlambda_8 (Lambda)               (None, 55, 55, 32)   0           atrous_bn_2_1[0][0]              \n__________________________________________________________________________________________________\nlambda_9 (Lambda)               (None, 55, 55, 32)   0           atrous_bn_2_2[0][0]              \n__________________________________________________________________________________________________\nmax_2 (Maximum)                 (None, 55, 55, 32)   0           lambda_6[0][0]                   \n                                                                 lambda_7[0][0]                   \n                                                                 lambda_8[0][0]                   \n                                                                 lambda_9[0][0]                   \n__________________________________________________________________________________________________\nconv_2d_2 (Conv2D)              (None, 55, 55, 96)   3072        max_2[0][0]                      \n__________________________________________________________________________________________________\ncnv_bn_2 (BatchNormalization)   (None, 55, 55, 96)   384         conv_2d_2[0][0]                  \n__________________________________________________________________________________________________\nlambda_10 (Lambda)              (None, 55, 55, 96)   0           cnv_bn_2[0][0]                   \n__________________________________________________________________________________________________\nmax_pooling2d_1 (MaxPooling2D)  (None, 27, 27, 96)   0           lambda_10[0][0]                  \n__________________________________________________________________________________________________\nconv_2d_redu_3 (Conv2D)         (None, 27, 27, 48)   4608        max_pooling2d_1[0][0]            \n__________________________________________________________________________________________________\natrous_redu_bn_3 (BatchNormaliz (None, 27, 27, 48)   192         conv_2d_redu_3[0][0]             \n__________________________________________________________________________________________________\nlambda_11 (Lambda)              (None, 27, 27, 48)   0           atrous_redu_bn_3[0][0]           \n__________________________________________________________________________________________________\natrous_depth_conv_3_0 (Depthwis (None, 27, 27, 48)   432         lambda_11[0][0]                  \n__________________________________________________________________________________________________\natrous_depth_conv_3_1 (Depthwis (None, 27, 27, 48)   432         lambda_11[0][0]                  \n__________________________________________________________________________________________________\natrous_depth_conv_3_2 (Depthwis (None, 27, 27, 48)   432         lambda_11[0][0]                  \n__________________________________________________________________________________________________\natrous_bn_3_0 (BatchNormalizati (None, 27, 27, 48)   192         atrous_depth_conv_3_0[0][0]      \n__________________________________________________________________________________________________\natrous_bn_3_1 (BatchNormalizati (None, 27, 27, 48)   192         atrous_depth_conv_3_1[0][0]      \n__________________________________________________________________________________________________\natrous_bn_3_2 (BatchNormalizati (None, 27, 27, 48)   192         atrous_depth_conv_3_2[0][0]      \n__________________________________________________________________________________________________\nlambda_12 (Lambda)              (None, 27, 27, 48)   0           atrous_bn_3_0[0][0]              \n__________________________________________________________________________________________________\nlambda_13 (Lambda)              (None, 27, 27, 48)   0           atrous_bn_3_1[0][0]              \n__________________________________________________________________________________________________\nlambda_14 (Lambda)              (None, 27, 27, 48)   0           atrous_bn_3_2[0][0]              \n__________________________________________________________________________________________________\nmax_3 (Maximum)                 (None, 27, 27, 48)   0           lambda_11[0][0]                  \n                                                                 lambda_12[0][0]                  \n                                                                 lambda_13[0][0]                  \n                                                                 lambda_14[0][0]                  \n__________________________________________________________________________________________________\nconv_2d_3 (Conv2D)              (None, 27, 27, 128)  6144        max_3[0][0]                      \n__________________________________________________________________________________________________\ncnv_bn_3 (BatchNormalization)   (None, 27, 27, 128)  512         conv_2d_3[0][0]                  \n__________________________________________________________________________________________________\nlambda_15 (Lambda)              (None, 27, 27, 128)  0           cnv_bn_3[0][0]                   \n__________________________________________________________________________________________________\nmax_pooling2d_2 (MaxPooling2D)  (None, 13, 13, 128)  0           lambda_15[0][0]                  \n__________________________________________________________________________________________________\nconv_2d_redu_4 (Conv2D)         (None, 13, 13, 64)   8192        max_pooling2d_2[0][0]            \n__________________________________________________________________________________________________\natrous_redu_bn_4 (BatchNormaliz (None, 13, 13, 64)   256         conv_2d_redu_4[0][0]             \n__________________________________________________________________________________________________\nlambda_16 (Lambda)              (None, 13, 13, 64)   0           atrous_redu_bn_4[0][0]           \n__________________________________________________________________________________________________\natrous_depth_conv_4_0 (Depthwis (None, 13, 13, 64)   576         lambda_16[0][0]                  \n__________________________________________________________________________________________________\natrous_depth_conv_4_1 (Depthwis (None, 13, 13, 64)   576         lambda_16[0][0]                  \n__________________________________________________________________________________________________\natrous_depth_conv_4_2 (Depthwis (None, 13, 13, 64)   576         lambda_16[0][0]                  \n__________________________________________________________________________________________________\natrous_bn_4_0 (BatchNormalizati (None, 13, 13, 64)   256         atrous_depth_conv_4_0[0][0]      \n__________________________________________________________________________________________________\natrous_bn_4_1 (BatchNormalizati (None, 13, 13, 64)   256         atrous_depth_conv_4_1[0][0]      \n__________________________________________________________________________________________________\natrous_bn_4_2 (BatchNormalizati (None, 13, 13, 64)   256         atrous_depth_conv_4_2[0][0]      \n__________________________________________________________________________________________________\nlambda_17 (Lambda)              (None, 13, 13, 64)   0           atrous_bn_4_0[0][0]              \n__________________________________________________________________________________________________\nlambda_18 (Lambda)              (None, 13, 13, 64)   0           atrous_bn_4_1[0][0]              \n__________________________________________________________________________________________________\nlambda_19 (Lambda)              (None, 13, 13, 64)   0           atrous_bn_4_2[0][0]              \n__________________________________________________________________________________________________\nmax_4 (Maximum)                 (None, 13, 13, 64)   0           lambda_16[0][0]                  \n                                                                 lambda_17[0][0]                  \n                                                                 lambda_18[0][0]                  \n                                                                 lambda_19[0][0]                  \n__________________________________________________________________________________________________\nconv_2d_4 (Conv2D)              (None, 13, 13, 128)  8192        max_4[0][0]                      \n__________________________________________________________________________________________________\ncnv_bn_4 (BatchNormalization)   (None, 13, 13, 128)  512         conv_2d_4[0][0]                  \n__________________________________________________________________________________________________\nlambda_20 (Lambda)              (None, 13, 13, 128)  0           cnv_bn_4[0][0]                   \n__________________________________________________________________________________________________\nconv_2d_redu_5 (Conv2D)         (None, 13, 13, 64)   8192        lambda_20[0][0]                  \n__________________________________________________________________________________________________\natrous_redu_bn_5 (BatchNormaliz (None, 13, 13, 64)   256         conv_2d_redu_5[0][0]             \n__________________________________________________________________________________________________\nlambda_21 (Lambda)              (None, 13, 13, 64)   0           atrous_redu_bn_5[0][0]           \n__________________________________________________________________________________________________\natrous_depth_conv_5_0 (Depthwis (None, 13, 13, 64)   576         lambda_21[0][0]                  \n__________________________________________________________________________________________________\natrous_depth_conv_5_1 (Depthwis (None, 13, 13, 64)   576         lambda_21[0][0]                  \n__________________________________________________________________________________________________\natrous_depth_conv_5_2 (Depthwis (None, 13, 13, 64)   576         lambda_21[0][0]                  \n__________________________________________________________________________________________________\natrous_bn_5_0 (BatchNormalizati (None, 13, 13, 64)   256         atrous_depth_conv_5_0[0][0]      \n__________________________________________________________________________________________________\natrous_bn_5_1 (BatchNormalizati (None, 13, 13, 64)   256         atrous_depth_conv_5_1[0][0]      \n__________________________________________________________________________________________________\natrous_bn_5_2 (BatchNormalizati (None, 13, 13, 64)   256         atrous_depth_conv_5_2[0][0]      \n__________________________________________________________________________________________________\nlambda_22 (Lambda)              (None, 13, 13, 64)   0           atrous_bn_5_0[0][0]              \n__________________________________________________________________________________________________\nlambda_23 (Lambda)              (None, 13, 13, 64)   0           atrous_bn_5_1[0][0]              \n__________________________________________________________________________________________________\nlambda_24 (Lambda)              (None, 13, 13, 64)   0           atrous_bn_5_2[0][0]              \n__________________________________________________________________________________________________\nmax_5 (Maximum)                 (None, 13, 13, 64)   0           lambda_21[0][0]                  \n                                                                 lambda_22[0][0]                  \n                                                                 lambda_23[0][0]                  \n                                                                 lambda_24[0][0]                  \n__________________________________________________________________________________________________\nconv_2d_5 (Conv2D)              (None, 13, 13, 128)  8192        max_5[0][0]                      \n__________________________________________________________________________________________________\ncnv_bn_5 (BatchNormalization)   (None, 13, 13, 128)  512         conv_2d_5[0][0]                  \n__________________________________________________________________________________________________\nlambda_25 (Lambda)              (None, 13, 13, 128)  0           cnv_bn_5[0][0]                   \n__________________________________________________________________________________________________\nconv_2d_redu_6 (Conv2D)         (None, 13, 13, 64)   8192        lambda_25[0][0]                  \n__________________________________________________________________________________________________\natrous_redu_bn_6 (BatchNormaliz (None, 13, 13, 64)   256         conv_2d_redu_6[0][0]             \n__________________________________________________________________________________________________\nlambda_26 (Lambda)              (None, 13, 13, 64)   0           atrous_redu_bn_6[0][0]           \n__________________________________________________________________________________________________\natrous_depth_conv_6_0 (Depthwis (None, 13, 13, 64)   576         lambda_26[0][0]                  \n__________________________________________________________________________________________________\natrous_depth_conv_6_1 (Depthwis (None, 13, 13, 64)   576         lambda_26[0][0]                  \n__________________________________________________________________________________________________\natrous_depth_conv_6_2 (Depthwis (None, 13, 13, 64)   576         lambda_26[0][0]                  \n__________________________________________________________________________________________________\natrous_bn_6_0 (BatchNormalizati (None, 13, 13, 64)   256         atrous_depth_conv_6_0[0][0]      \n__________________________________________________________________________________________________\natrous_bn_6_1 (BatchNormalizati (None, 13, 13, 64)   256         atrous_depth_conv_6_1[0][0]      \n__________________________________________________________________________________________________\natrous_bn_6_2 (BatchNormalizati (None, 13, 13, 64)   256         atrous_depth_conv_6_2[0][0]      \n__________________________________________________________________________________________________\nlambda_27 (Lambda)              (None, 13, 13, 64)   0           atrous_bn_6_0[0][0]              \n__________________________________________________________________________________________________\nlambda_28 (Lambda)              (None, 13, 13, 64)   0           atrous_bn_6_1[0][0]              \n__________________________________________________________________________________________________\nlambda_29 (Lambda)              (None, 13, 13, 64)   0           atrous_bn_6_2[0][0]              \n__________________________________________________________________________________________________\nmax_6 (Maximum)                 (None, 13, 13, 64)   0           lambda_26[0][0]                  \n                                                                 lambda_27[0][0]                  \n                                                                 lambda_28[0][0]                  \n                                                                 lambda_29[0][0]                  \n__________________________________________________________________________________________________\nconv_2d_6 (Conv2D)              (None, 13, 13, 256)  16384       max_6[0][0]                      \n__________________________________________________________________________________________________\ncnv_bn_6 (BatchNormalization)   (None, 13, 13, 256)  1024        conv_2d_6[0][0]                  \n__________________________________________________________________________________________________\nlambda_30 (Lambda)              (None, 13, 13, 256)  0           cnv_bn_6[0][0]                   \n__________________________________________________________________________________________________\nseparable_conv2d (SeparableConv (None, 13, 13, 3)    1024        lambda_30[0][0]                  \n__________________________________________________________________________________________________\nbatch_normalization_1 (BatchNor (None, 13, 13, 3)    12          separable_conv2d[0][0]           \n__________________________________________________________________________________________________\nlambda_31 (Lambda)              (None, 13, 13, 3)    0           batch_normalization_1[0][0]      \n__________________________________________________________________________________________________\nglobal_average_pooling2d (Globa (None, 3)            0           lambda_31[0][0]                  \n__________________________________________________________________________________________________\nclass_branch (Activation)       (None, 3)            0           global_average_pooling2d[0][0]   \n==================================================================================================\nTotal params: 93,900\nTrainable params: 89,926\nNon-trainable params: 3,974\n__________________________________________________________________________________________________\n"}